…
 0 0 0 0 0 0 0 0 0 0 0 0 0 0 0 0 0 0 0 0 0 0 0 0 0 0 0 0 0 0 0 0 0 0 0 0 0
 0 0 0 0 0 0 0 0 0 0 0 0 0 0 0 0 0 0 0 0 0 0 0 0 0 0 0 0 0 0 0 0 0 0 0 0 0
 0 0 0 0 0 0 0 0 0 0 0 0 0 0 0 0 0 0 0 0 0 0 0 0 0 0 0 0 0 0 0 0 1 1 1 1 1
 1 1 1 1 1 1 1 1 1 1 1 1 1 1 1 1 1 1 1 1 1 1 1 1 1 1 1 1 1 1 1 1 1 1 1 1 1
 1 1 1 1 1 1 1 1 1 1 1 1 1 1 1 1 1 1 1 1 1 1 1 1 2 2 2 2 2 2 2 2 2 2 2 2 2
 2 2 2 2 2 2 2 2 2 2 2 2 2 2 2 2 2 2 2 2 2 2 2 2 2 2 2 2 2 2 2 2 2 2 2 2 2
 2 2 2 2 2 2 2 2 2 2 2 2 2 2 2 2 2 2 2 2 2 2]","['Normal', 'NPT', 'OD']","EfficientTCN(
  (features): ModuleList(
    (0): ResidualDilatedBlock(
      (conv): Conv1d(2, 64, kernel_size=(7,), stride=(2,), padding=(3,), padding_mode=replicate)
      (bn): BatchNorm1d(64, eps=1e-05, momentum=0.1, affine=True, track_running_stats=True)
      (activation): SiLU()
      (dropout): Dropout(p=0.35, inplace=False)
      (residual): Conv1d(2, 64, kernel_size=(1,), stride=(2,))
    )
    (1): ResidualDilatedBlock(
      (conv): Conv1d(64, 128, kernel_size=(7,), stride=(2,), padding=(6,), dilation=(2,), padding_mode=replicate)
      (bn): BatchNorm1d(128, eps=1e-05, momentum=0.1, affine=True, track_running_stats=True)
      (activation): SiLU()
      (dropout): Dropout(p=0.35, inplace=False)
      (residual): Conv1d(64, 128, kernel_size=(1,), stride=(2,))
    )
    (2): ResidualDilatedBlock(
      (conv): Conv1d(128, 256, kernel_size=(7,), stride=(2,), padding=(12,), dilation=(4,), padding_mode=replicate)
      (bn): BatchNorm1d(256, eps=1e-05, momentum=0.1, affine=True, track_running_stats=True)
      (activation): SiLU()
      (dropout): Dropout(p=0.35, inplace=False)
      (residual): Conv1d(128, 256, kernel_size=(1,), stride=(2,))
    )
    (3): ResidualDilatedBlock(
      (conv): Conv1d(256, 512, kernel_size=(7,), stride=(2,), padding=(24,), dilation=(8,), padding_mode=replicate)
      (bn): BatchNorm1d(512, eps=1e-05, momentum=0.1, affine=True, track_running_stats=True)
      (activation): SiLU()
      (dropout): Dropout(p=0.35, inplace=False)
      (residual): Conv1d(256, 512, kernel_size=(1,), stride=(2,))
    )
    (4): ResidualDilatedBlock(
      (conv): Conv1d(512, 512, kernel_size=(7,), stride=(1,), padding=(48,), dilation=(16,), padding_mode=replicate)
      (bn): BatchNorm1d(512, eps=1e-05, momentum=0.1, affine=True, track_running_stats=True)
      (activation): SiLU()
      (dropout): Dropout(p=0.35, inplace=False)
      (residual): Identity()
    )
  )
  (pool_avg): AdaptiveAvgPool1d(output_size=1)
  (pool_max): AdaptiveMaxPool1d(output_size=1)
  (classifier): Sequential(
    (0): Linear(in_features=1024, out_features=1024, bias=True)
    (1): SiLU()
    (2): Dropout(p=0.35, inplace=False)
    (3): Linear(in_features=1024, out_features=3, bias=True)
  )
)"
0.8788732394366198,0.9721446041660199,0.9253012048192771,0.7741935483870968,0.8571428571428571,"[[3.1942986e-02 2.4924140e-01 7.1881557e-01]
 [9.4423115e-01 5.3144645e-02 2.6242814e-03]
 [9.9987674e-01 3.7405553e-05 8.5769178e-05]
 ...
 [5.8191246e-03 4.8678127e-01 5.0739962e-01]
 [6.5243809e-04 2.6174881e-02 9.7317266e-01]
 [1.4107380e-02 7.1811873e-01 2.6777384e-01]]","[0 0 0 0 0 0 0 0 0 0 0 0 0 0 0 0 0 0 0 0 0 0 0 0 0 0 0 0 0 0 0 0 0 0 0 0 0
…
